Voices_Distance_emb.safetensors (safetensors, 601272 bytes, 265 tensors)

row_0 f4 [1, 512]
000000 75 1b bf bd bc a7 8e 3c 99 8a 9e bc 08 41 3b 3d
       -0.09331409 0.017413966 -0.019353198 0.045716316
000010 59 c5 19 3d bf 1f a2 3c c3 1a 7d bd df c8 77 bd
       0.03754172 0.019790528 -0.0617931 -0.0604943
000020 6e 08 1f bd d8 d6 42 bd 0b b3 41 bd c5 96 05 3d
       -0.0388264 -0.047568172 -0.04728989 0.03261449
000030 4c 2f f1 3b 00 99 0b bc 0f 2d 40 bb de 81 e0 ba
       0.0073603746 -0.008520365 -0.0029323732 -0.0017128547
000040 89 3e 2a bd 1d 42 26 bd 46 57 9d bb d6 7d 32 bd
       -0.041563544 -0.040590394 -0.0048016636 -0.043577038
000050 bf c5 86 bb b4 c9 d3 3b b4 ff cf 3c 0c 21 0a 3c
       -0.0041129286 0.006463254 0.025390483 0.008430731
000060 d3 77 62 bd 37 86 ec 3b 62 ec 45 3c a2 7a 25 bc
       -0.055290055 0.007218148 0.012080284 -0.010100039
000070 8a ac 58 bd 2c 9a 3d bd 6a d2 24 bd 11 ac 19 3d
       -0.05289892 -0.046289608 -0.04023973 0.03751761
000080 47 c8 91 bc dc 98 11 3d 40 46 81 3c 94 7c a3 39
       -0.017795695 0.03554617 0.015780568 0.000311826
000090 f9 aa 7f 3d 37 f3 f1 bc 3d 5c 51 3d 8a 99 3c 3d
       0.06241891 -0.02953492 0.051113356 0.046044864
0000a0 6b 6b 63 bd 21 14 4f 3c 65 72 3e bd 42 e6 94 bd
       -0.055522364 0.012639076 -0.046495814 -0.07270481
0000b0 f6 97 a6 bd 95 be e1 bc c8 a5 d1 bb 01 95 07 3d
       -0.08134453 -0.027556697 -0.0063979365 0.033101086
0000c0 d1 50 64 bc c4 b1 20 3b 61 6f 13 bd 09 c0 2d bd
       -0.013935284 0.002452002 -0.03599489 -0.042419467
0000d0 f7 54 78 bb b5 d5 e3 3d bc 8d 8c bc 9a e6 14 bc
       -0.003789244 0.11124746 -0.017157428 -0.009088183
0000e0 3f 80 b3 3a de b2 81 3c f5 22 d0 bc de f8 b2 bc
       0.0013694837 0.01583236 -0.025407294 -0.021847185
0000f0 26 6e b5 3d 07 e4 ee 3c 3b 7a 29 3d 3b 4f 7a 3d
       0.088589 0.029161466 0.041376334 0.061110716
000100 35 18 04 3d 2c 34 f4 3c b2 1a 36 bd bc 59 15 bd
       0.032249648 0.029810034 -0.044459052 -0.03646253
000110 7f 0c e3 3b 55 c5 b1 3c 6c 0e 84 3c bf de a6 3d
       0.00692898 0.02170054 0.016120158 0.08147954
000120 9b 30 35 bd f7 44 70 3d 22 36 e2 bc 5b c5 01 bd
       -0.044235807 0.05865952 -0.027613703 -0.031682353
000130 d5 fa a2 3d 74 b5 90 3d 80 e9 30 bd 61 42 f4 bc
       0.07957999 0.070658594 -0.043191433 -0.029816808
000140 4b a3 13 bd 25 c4 c4 3d da a1 2a 3d b4 a8 62 bc
       -0.0360444 0.09607724 0.04165826 -0.013834167
000150 c5 4a 0d 3b 24 2d 27 bc 1e 68 7c 3b 3d de e7 3c
       0.0021559459 -0.010203633 0.0038514207 0.028304214
000160 98 ae 92 bc 5b e7 1b bd bb 68 63 3d b9 e6 d3 bc
       -0.017905518 -0.038062435 0.0555198 -0.025866853
000170 6a d3 3b bd c0 2b 93 3c 77 51 09 3c 85 64 3a 3c
       -0.045855917 0.017965198 0.008381239 0.011376505
000180 92 58 7e 3c e6 d1 60 bc af 42 15 bd 4f bb 96 bc
       0.0155240465 -0.013721919 -0.036440548 -0.018399863
000190 e2 97 46 bd 4d 0f 26 3d e5 10 71 3d 65 98 d5 3b
       -0.04848469 0.040541936 0.058854003 0.006518411
0001a0 c5 b0 cd bd dd 7b 0c bd c0 a0 7d 3c 53 49 1a bd
       -0.10043482 -0.034297813 0.01548022 -0.037667584
0001b0 61 82 b1 3c 72 6b d6 bc 01 24 ba 3d 0a 53 45 3d
       0.021668615 -0.02617428 0.090888985 0.048174895
0001c0 f7 6b 4b 3b de 61 29 bd c7 7d 71 3d fc 5d 95 3d
       0.0031039694 -0.0413531 0.05895784 0.07293317
0001d0 60 dd 03 3c 44 3c 82 bd 3e 75 0d bd 6c 17 3a 3c
       0.008048385 -0.06359151 -0.03453564 0.011358123
0001e0 12 2b 81 bd 54 d5 95 3d cc e6 15 bd 66 da 3c bd
       -0.06307043 0.0731608 -0.03659706 -0.04610672
0001f0 c9 97 94 bd ae ba de 3c 7c c7 75 bd 19 a9 14 3d
       -0.07255513 0.027188625 -0.060004696 0.036294077
000200 02 1f cf bc f0 c0 b3 3b 53 08 1e bd d6 7b 07 bd
       -0.02528334 0.0054856464 -0.038582157 -0.033077084
000210 c1 95 11 be f9 af 2b 3c a6 be 01 bd db ac f8 3c
       -0.14217283 0.010478967 -0.031675957 0.030355861
000220 f3 0f d2 ba 84 f8 c0 3d 44 e3 67 3c b6 26 de bc
       -0.0016026482 0.094224006 0.014153305 -0.027118068
000230 e2 10 1a bd 1e de b5 bd b5 bc 95 3d d4 7e 19 bb
       -0.037613757 -0.08880256 0.07311384 -0.0023421543
000240 5d e4 4f bd d7 99 18 3b 9f 25 9f bc a7 05 a0 3c
       -0.050754894 0.0023285055 -0.019427119 0.019533945
000250 80 f5 b2 bd a2 a8 32 bd 29 57 3d 3d 4a 83 01 3d
       -0.08738232 -0.043617852 0.0462257 0.031619348
000260 de 10 b5 3b 32 f7 f3 3c 13 b0 05 3d 9a ac 06 be
       0.0055256924 0.029780958 0.03263862 -0.1315178
000270 4b 96 d2 bc 9c 1d 41 bd fb 94 97 3d b0 0e 4c bd
       -0.02570643 -0.04714738 0.07401463 -0.049818695
000280 47 fd 55 bc 27 0a 9b 3d 63 74 38 bd 8c a7 bb bd
       -0.013060874 0.07570296 -0.04503287 -0.091628164
000290 92 88 5d 3c 79 7d f1 bc e0 6a 2d 3c 96 96 61 3d
       0.01352133 -0.029478775 0.010584563 0.05507525
0002a0 7f 29 6d bd 1c 07 2c bd 3c 3c 35 bb 08 d5 9a bc
       -0.057900902 -0.041998968 -0.002765431 -0.01890041
0002b0 a4 f1 5d 3d 40 9a c7 bd 79 eb 5e bd f4 f8 cb 3c
       0.054185525 -0.09746218 -0.054423783 0.024898984
0002c0 ed b4 75 bc 35 4b 88 3d cd d8 3b bd e7 61 45 3c
       -0.014996749 0.066549696 -0.045861054 0.0120472675
0002d0 0c 0e 9e 3c 0e ef 96 bc 92 41 bf 3c f7 ea 84 bb
       0.019293807 -0.018424537 0.023346696 -0.0040563303
0002e0 09 36 02 3c 27 d8 88 bd ea e5 07 bd 11 cc ac 3c
       0.007947453 -0.06681853 -0.033178248 0.0210934
0002f0 e1 cd b3 3c 85 0f 6d bc 55 9c 81 bc d0 3d ac bd
       0.021948757 -0.014469032 -0.015821615 -0.08410227
000300 d3 9c fd 3c ed e7 e4 3c 42 bb ff 3c 9c 9e 26 bc
       0.030958569 0.027942622 0.031217221 -0.010169651
000310 74 7f d2 bc 89 59 2f 3a 0d de 16 3d 78 22 12 3d
       -0.02569554 0.0006689062 0.036832858 0.035677403
000320 1b f9 42 3d 78 df d7 3b 2d 01 0d bc 04 88 c1 3d
       0.047600847 0.006587919 -0.008606237 0.09449771
000330 82 59 78 3c 46 b1 af bc 0b ab c9 ba 21 e3 5c bc
       0.015158059 -0.021446835 -0.0015386058 -0.013481886
000340 01 74 8e 3c 88 c1 30 3b 9c 9b ea 3c f2 2c d7 bd
       0.0173893 0.0026970822 0.028638653 -0.105066195
000350 b3 cc b2 bc 75 4d b4 3d 26 04 9c bd 4f f7 61 3d
       -0.021826124 0.08803836 -0.07617979 0.055167492
000360 d5 ac 95 3d 4b 4a 03 bd 11 cd 83 bd ec d1 0d bd
       0.07308356 -0.032053273 -0.06435598 -0.034624025
000370 e7 2d 1e 3d 6b 89 70 3d ed ae f3 bd 05 87 62 3d
       0.038617995 0.058724802 -0.11898599 0.055304546
000380 3c f8 c2 3d a6 ad 5f bc 97 52 38 bd 38 26 02 bc
       0.09520003 -0.013652241 -0.04500064 -0.007943682
000390 70 e5 29 bb 30 fa 37 bc f5 59 3a bd 2b f4 8d ba
       -0.002592411 -0.011229083 -0.045495946 -0.0010830214
0003a0 39 59 a1 bd a8 cf 80 bc f9 0e 98 3c ee 17 94 3c
       -0.07878346 -0.015724018 0.018561827 0.018077817
0003b0 85 d7 98 3c e7 14 94 bc f1 32 6e bd 10 00 94 bd
       0.018657455 -0.018076373 -0.05815405 -0.072265744
0003c0 d2 05 0d 3c b4 fb 93 bd c1 5f 1b bd da 37 04 bc
       0.008607345 -0.07225743 -0.037933115 -0.008069957
0003d0 10 19 fd 3c cd 6b 4f bc c1 97 7c bb cf 3a e3 3c
       0.03089574 -0.012659979 -0.00385426 0.027738003
0003e0 f1 15 d0 3c 46 2b b2 3d ef 26 62 bc d6 ff e9 3c
       0.025401087 0.0869966 -0.013803228 0.028564375
0003f0 33 3d a7 bd ee 80 48 bc af b6 73 3d 29 65 66 3c
       -0.0816597 -0.0122377705 0.059500393 0.014062204

row_1 f4 [1, 512]
000000 f0 f0 48 bd ba 33 58 3c 29 e2 bc bd f4 b6 8e bc
       -0.0490579 0.013195926 -0.09222824 -0.017421223
000010 1b d9 78 3d 02 97 47 3d 6e b1 00 bd bf f4 97 bd
       0.060753923 0.048727997 -0.03141921 -0.074197285
000020 32 79 82 bd 5c 0d 23 bd 85 ce 24 bd 35 d7 92 3c
       -0.063707724 -0.039807662 -0.040236015 0.017924884
000030 cb 65 cc bc 5a e9 58 3d bd 46 00 bc f4 f5 2a 3c
       -0.024950882 0.052956916 -0.007829365 0.010434616
000040 64 06 76 bd 85 7f 5f 3d bd b6 53 3c 19 f2 35 3b
       -0.06006469 0.05456497 0.012921986 0.002776271
000050 4b 32 84 bd a7 d6 39 bd a5 f1 4c 3d 8e 3c ff bc
       -0.06454905 -0.045370724 0.050035138 -0.031156804
000060 d8 08 77 3b 0c e6 93 bc 62 a4 1e 3d 08 dd 0b 3d
       0.003769448 -0.01805403 0.038730986 0.03414634
000070 52 ab 7a bd d5 1d 9c bd 7d 4c 92 ba b4 4b 57 3d
       -0.06119854 -0.076228775 -0.0011161711 0.05256243
000080 fb 5d 00 bd 7e 1d 14 3d 5e 3b 8c bc 59 88 cd b6
       -0.031339627 0.03616094 -0.017118152 -6.125349e-06
000090 9e cf 88 3b f8 60 e4 3c 6b 5f 1b 3d 2e 4c 6f 3c
       0.0041751405 0.02787827 0.037932795 0.014605565
0000a0 a9 9a 37 bd 91 77 41 bc 98 81 16 3d 08 bd 9d 3c
       -0.04482523 -0.011808292 0.036744684 0.019255176
0000b0 42 5b 2b bd a3 13 0d 3d 37 26 33 bc 29 99 db 3b
       -0.041835077 0.034442555 -0.010934404 0.0067016077
0000c0 c2 ab f9 bc 40 a4 a3 3b 7f d3 f6 bd 10 16 31 3d
       -0.030477408 0.0049939454 -0.120520584 0.04323393
0000d0 11 22 85 3d 45 58 78 bc 83 95 96 3d 0b 46 9f bc
       0.06500638 -0.015157764 0.07352736 -0.019442579
0000e0 ae 36 14 3d 3e f7 a4 3d e1 6a cd bc d9 77 94 3c
       0.03618496 0.0805497 -0.025075378 0.018123554
0000f0 f9 96 e2 bc 90 c6 46 3b 1c 32 0e 3c 4a d4 cb 3d
       -0.02765988 0.0030330755 0.008678939 0.099526
000100 7a c7 2b bd 11 9f bd 3c 18 be c7 3b 18 b1 41 bd
       -0.041938283 0.023147138 0.006095659 -0.04728803
000110 5b e8 d4 bc 86 73 30 bc ee e5 e2 3c d7 a0 c0 bb
       -0.025989702 -0.01076973 0.02769753 -0.0058785486
000120 10 05 93 3c 11 83 50 3d a1 a5 46 3d 38 5d 22 3d
       0.01794675 0.050906245 0.0484978 0.03963968
000130 80 52 93 3c 04 3a e5 bc 25 00 b7 bd ed d0 b0 bd
       0.017983675 -0.027981766 -0.089355744 -0.086335994
000140 41 dd aa bd 77 c9 9b 3d 26 aa 67 bc 51 1a 48 3c
       -0.08342982 0.07606786 -0.014139688 0.012213306
000150 b6 44 22 3d b0 80 db bc b7 c3 88 3c b3 7f b1 3c
       0.03961631 -0.026794761 0.016694887 0.021667337
000160 9a 3d 4f 3d a5 f4 c0 3a eb 65 8b 3d 63 59 6e 3d
       0.050595857 0.0014721347 0.06806549 0.058190715
000170 9d 54 fe bd bc 2f 36 3d 60 52 99 3c 46 2b 91 bd
       -0.124184825 0.044479117 0.018716037 -0.07088332
000180 24 b1 e9 bc 4a 48 09 bb e6 82 97 3c 7c e0 91 3c
       -0.02852685 -0.0020947629 0.018495034 0.017807238
000190 48 96 74 bd 13 95 95 3c ec 44 71 bc fb 34 3b 3d
       -0.059713632 0.01825956 -0.014725905 0.045704823
0001a0 ca 09 58 bd 6e 2c 4a bd 86 86 51 3d a1 5a 85 bc
       -0.05274371 -0.049358778 0.051153682 -0.016278567
0001b0 ca 31 e3 3c 1d f9 27 bd 1d d2 2f bc 21 8d bb 3c
       0.027733702 -0.041009057 -0.010731247 0.022894444
0001c0 09 ac 2b 3c 8c 1a b4 bd 44 60 68 3d 21 50 5a 3d
       0.010478028 -0.08794126 0.05673243 0.053299073
0001d0 74 04 4e 3d 87 32 2b bd 83 c3 93 3b 3b 8a be bc
       0.050297216 -0.041796234 0.004509391 -0.023259273
0001e0 8f 6e 9a 3b 6c 86 46 bc 42 16 b0 bc ae e9 83 bd
       0.0047128866 -0.01211701 -0.021494988 -0.06441055
0001f0 34 64 89 bd 8e a7 19 3c 85 49 f0 bc 04 f6 75 bc
       -0.06708565 0.009378327 -0.029331932 -0.015012268
000200 1d 32 3c bd 00 8b 8a bd 8c 76 6d bd 89 56 43 bd
       -0.04594623 -0.067647934 -0.057974383 -0.04768995
000210 81 a7 89 bd 6b ef e3 3c c6 e7 bb bd 9b fb 94 bb
       -0.06721402 0.027824124 -0.09175067 -0.0045465953
000220 b2 05 d0 bb a9 84 0d 3d 30 12 51 3c a4 0a 64 bd
       -0.006348335 0.034550343 0.012760684 -0.05567421
000230 c8 e5 39 3d 6d 4d 0d bc 61 94 bc ba fd 91 87 3c
       0.045385152 -0.008624417 -0.0014387482 0.016549105
000240 31 08 81 bd 09 ac 22 3d 01 4d 96 3c b2 58 d6 3b
       -0.063003905 0.039714847 0.018347265 0.006541335
000250 c0 a8 6e bc 42 91 f4 bb d3 3b 95 3b 1b 9d 5f bd
       -0.0145666 -0.007463605 0.0045542507 -0.054593187
000260 51 45 32 3d 6b ab 10 3d b5 5c de bc 23 7e b4 bc
       0.043523137 0.035319727 -0.027143816 -0.022032803
000270 7a 90 4f bd 36 41 87 bc 18 81 1a 3d ed 8d 83 bd
       -0.050674893 -0.016510587 0.03772077 -0.064235546
000280 b9 31 ab 3d c5 91 6c 3d 74 b5 e3 3c 39 07 9c bd
       0.08359093 0.057756204 0.027796485 -0.07618565
000290 cf ce fe 3c 0b da 88 3d 4c ca ef 3c d6 b4 0f 3d
       0.031104473 0.066822134 0.029271267 0.035084568
0002a0 b2 97 00 bd e9 22 5d 38 12 a1 ca bc ce 00 c8 b9
       -0.031394668 5.272302e-05 -0.024735007 -0.00038147572
0002b0 ea da 9f 3d c0 c2 9a 3c 85 f8 56 3c b7 ad 2c bd
       0.078054264 0.018891692 0.013120775 -0.042157855
0002c0 ed cc b7 bd 68 b2 13 bb f7 16 cd bb e3 22 34 3d
       -0.08974633 -0.0022536758 -0.006258841 0.043978583
0002d0 1d f6 8e 3d c2 6e b1 bc 1b e0 22 3c da 39 b1 bc
       0.06980536 -0.021659259 0.009941126 -0.021634031
0002e0 e2 44 14 3d 76 ca c4 3c df 92 17 b8 95 ab c3 b7
       0.036198504 0.024022322 -3.613799e-05 -2.332571e-05
0002f0 35 02 42 bd ab 10 c2 bc 76 b0 08 bd ea 6d 94 bd
       -0.047365386 -0.023689589 -0.03337141 -0.07247527
000300 7c 78 65 3d 35 44 e3 3c c1 5c 00 bc 8b 8b 61 bc
       0.056023106 0.027742485 -0.007834614 -0.01376618
000310 97 c4 49 bd 3e fb 8c bd c1 02 0d 3d 43 38 cd bc
       -0.04925975 -0.06883858 0.034426454 -0.025051242
000320 79 59 34 3c d3 92 d8 3c 4d 20 87 3c 09 d8 d3 3c
       0.01100766 0.026437199 0.016494894 0.02585985
000330 12 06 49 3d 5a 53 32 bb 3e a0 26 3d e0 cb bc bd
       0.049078055 -0.0027210326 0.040680163 -0.092185736
000340 7c e3 11 bc c8 a3 8b bd 5b c9 11 bd 56 86 72 bd
       -0.008904334 -0.06818348 -0.03559242 -0.059210144
000350 c4 52 90 bd 94 18 23 3d 77 d6 3d bc 49 db be 3d
       -0.07047036 0.03981836 -0.011586777 0.09319169
000360 ba 1b 8e 3d 11 72 a7 bd a7 ac 32 bc 72 bd 08 bc
       0.06938882 -0.08176053 -0.010905421 -0.0083459485
000370 4b 73 a0 bc de 33 db bc 45 67 b3 bd 43 d9 af 3c
       -0.019586226 -0.02675813 -0.087599315 0.021465903
000380 5b 00 5d bd c0 e6 94 bc a0 05 95 3d bd 4d c9 3a
       -0.053955417 -0.018176436 0.072764635 0.0015358251
000390 47 f4 78 bd f0 c4 f3 bc 91 1d ba 3c 4f e7 7a bd
       -0.060779836 -0.029756993 0.022719176 -0.06125575
0003a0 a2 94 5d 3d 94 cc 0f 3d 02 d3 36 bd e5 c8 23 3d
       0.054096825 0.03510721 -0.044634826 0.03998651
0003b0 57 f7 9d 3d 25 e8 87 bd 22 fa 6b bd 4b 17 89 bc
       0.07713192 -0.06636075 -0.057611592 -0.01673474
0003c0 e5 73 a5 3c ea cc 58 bd e7 a4 bf bc 46 5b 2e 3d
       0.020196864 -0.052929796 -0.023394061 0.042567514
0003d0 ad 57 44 3d cb 90 83 bc 49 02 3f 3c a3 97 73 bd
       0.047935177 -0.016060254 0.01165826 -0.059470784
0003e0 a0 f5 13 3c 2b 4c fe 3c 97 5a 6b 3c 0e 43 c0 3d
       0.0090307295 0.03104218 0.01436486 0.0938779
0003f0 ae 61 79 bc 1a 6e ab bd d0 15 82 bc 4b c5 8d bc
       -0.015221043 -0.083706096 -0.015879542 -0.01730599

row_10 f4 [1, 512]
000000 3a 86 b7 bd 2e f2 3f 3d 45 fe 71 bd 15 94 03 3b
       -0.089611486 0.04686182 -0.05908038 0.0020077277
000010 ef dd 93 3c ec fa 11 3d 3b 5b 68 bd b4 b2 8a bc
       0.018050162 0.03563969 -0.05672763 -0.016930915
000020 45 34 08 3c 6e a3 76 bd 32 6c b4 bc c7 0b 93 3c
       0.008313243 -0.060214452 -0.022024248 0.017949952
000030 82 d4 56 bd 65 90 da 3c 80 e8 01 3d eb db f1 3c
       -0.052448757 0.02668018 0.03171587 0.02952381
000040 69 d2 f6 bd 52 6f 09 bc 3b b9 71 bd af fa eb bc
       -0.12051851 -0.008388357 -0.05901454 -0.028806059
000050 79 0f 7e bd ee dc 97 3c bf 82 11 3d 19 f9 7a bc
       -0.062026475 0.018537965 0.03552508 -0.015318179
000060 56 f3 a7 bd f0 41 04 bd 9c 4e 8c 3d 41 b0 3d 3d
       -0.082007095 -0.032289445 0.06850931 0.046310667
000070 25 5f 0e bd 41 45 56 bd cd 0e e3 bc af 37 10 3d
       -0.034758706 -0.05231214 -0.027717018 0.035209354
000080 df 5a 5c bd 70 ca 02 3a 93 e8 52 3d 62 2f 10 3c
       -0.0537976 0.0004989272 0.05149133 0.008800359
000090 03 7b b8 3b 64 c1 6f ba 5c 49 f2 3c 90 86 4b 3c
       0.0056298985 -0.0009145944 0.029575996 0.012422219
0000a0 95 c1 76 bd de 3b ed 3c e9 3d 7b 3c d3 e1 a5 bd
       -0.060243208 0.028959211 0.015334585 -0.08099713
0000b0 8f 1e 8a bd 5f b3 ab 3c 78 1b a3 bc 13 95 8f bc
       -0.0674411 0.020959554 -0.019910559 -0.017527139
0000c0 dd 49 87 bb e2 c3 09 bc e8 2b be bd 1f 5f b7 3b
       -0.0041286782 -0.0084085185 -0.09285718 0.005596056
0000d0 55 74 fe 3c 49 56 80 3d 0b fd 61 3d 4c 3f 10 bd
       0.03106133 0.062664576 0.05517296 -0.035216615
0000e0 f7 9a aa bb f7 da 85 3d af ea 3e 3d 46 99 d4 bc
       -0.0052064615 0.06535905 0.04661053 -0.025951993
0000f0 37 12 aa 3d 98 73 24 3d 40 63 a4 3c 50 45 e5 3c
       0.083042555 0.0401493 0.020066857 0.027987152
000100 bb 6b cd bc 29 67 3d 3d a4 df 88 bc 1c 66 54 3b
       -0.025075784 0.04624096 -0.016708203 0.0032409495
000110 e6 43 5e 3c 99 d3 23 bd ba ef 04 ba 35 24 bc bc
       0.013565993 -0.039996717 -0.00050711224 -0.022966484
000120 e3 55 d8 3c ac 95 79 3d 69 6a ce bc 3a f4 b2 bd
       0.026408141 0.060933754 -0.025197225 -0.08737989
000130 19 1a 83 3d ef af a9 bc a7 8d 09 bc 8f 5a b1 bc
       0.06401462 -0.020713774 -0.008395589 -0.021649627
000140 b7 1a 37 bd 43 58 91 3d 9b 84 08 3c d7 d3 7b 3c
       -0.04470321 0.07096913 0.008332397 0.015370331
000150 f0 1c 1e bb 5d 25 02 bb 3b 45 f4 bc 71 92 b5 3c
       -0.0024126135 -0.0019858696 -0.029818168 0.022164555
000160 39 d6 2f 3d e8 a4 c0 3c 06 6c 8c 3d 19 b2 c5 3c
       0.042928908 0.023516133 0.06856541 0.024132775
000170 86 b5 47 bd 85 b8 92 bc b1 22 c3 bc 28 10 25 bd
       -0.0487571 -0.017910251 -0.023820253 -0.04029861
000180 76 8c 14 bd a0 b9 90 bb 7d 4e cf bc 4e a5 e9 bc
       -0.036266766 -0.0044166595 -0.02530598 -0.028521206
000190 0c db 32 bc 18 b0 6e 3b 08 5c 83 3d db 72 43 3d
       -0.010916483 0.0036420878 0.06414038 0.047716957
0001a0 59 f7 d6 bd 6e 20 9e bd b1 19 cd 3c 65 35 45 bd
       -0.104963966 -0.07721029 0.025036665 -0.048146624
0001b0 67 68 8e 3c 91 19 7e bd dd e5 1e 3d 9c b7 0f bc
       0.017383767 -0.0620361 0.038793433 -0.008771803
0001c0 55 b4 19 3c 91 0c 95 ba e1 aa 2a 3d 56 25 5f 3d
       0.009381373 -0.0011371543 0.04166687 0.054478966
0001d0 74 f8 c1 3b 83 ad a3 bc 43 db b7 bb 25 d0 94 bc
       0.0059195105 -0.019980198 -0.005610855 -0.018165657
0001e0 da da 3c bc 25 fc b5 3c 85 8c 8b bd 25 45 56 bc
       -0.011526788 0.022214958 -0.06813911 -0.013078009
0001f0 22 85 e4 bc 2a 8f c0 3c 0c 01 4f bd 0c 4b db bb
       -0.027895514 0.023505766 -0.050538108 -0.006692296
000200 f0 61 21 bd 47 ea 8e 3b 64 15 08 bd 51 ff 2f bd
       -0.03940004 0.004361424 -0.033223525 -0.042968098
000210 e2 2b df bd 8d bc 31 3d 16 54 8b bd df 8a 63 3c
       -0.10897042 0.043392707 -0.068031475 0.01388809
000220 87 9d 5d 3d f2 6f 99 3d 03 ae a9 bb f8 79 8d bd
       0.054105308 0.07492055 -0.0051782145 -0.06908029
000230 de 7f 83 bb 80 5c e7 bd 04 32 cf 3c b2 3d 29 bb
       -0.0040130457 -0.1129694 0.025292404 -0.0025824127
000240 6d 42 4a bd 0d f1 09 3d 2d 6f 1f bc fb cc 74 3d
       -0.049379755 0.03367715 -0.009731096 0.059765797
000250 31 21 3a bd 71 8b 91 bd f2 9d c2 3b f9 38 34 bd
       -0.04544181 -0.071066745 0.0059392387 -0.043999646
000260 63 6d ad 3c 9a 8f 62 3d 3d f1 47 3c 2d 7a cf bd
       0.021170324 0.05531273 0.012203512 -0.10130725
000270 35 1c 6a bd 88 72 b2 bc 72 f2 4e 3d 3b 59 3d 3b
       -0.057155807 -0.021783128 0.050524183 0.0028892297
000280 d9 d6 e8 bb db c6 8f 3d d0 87 4e bd 07 d4 09 be
       -0.00710569 0.070203505 -0.05042249 -0.13459788
000290 20 72 9a bc 36 3b 0b bd e7 2a 4a 3d d4 56 8b 3d
       -0.018853247 -0.033992015 0.04935732 0.068036705
0002a0 bc 12 24 bc 1b 36 1c bc 73 05 29 3d 05 e0 99 3b
       -0.010014232 -0.009534384 0.041264962 0.0046958947
0002b0 3c 44 84 3d d3 88 1e bd ee 2b d6 bc 53 5e d9 bc
       0.06458327 -0.038704704 -0.026143994 -0.026534235
0002c0 2b 23 8a bd a3 b5 d7 bc f4 86 a6 bd ae a4 15 3a
       -0.06744989 -0.026331728 -0.08131209 0.0005708438
0002d0 c7 e0 a3 3d 6c 71 a3 bc 97 a0 8e 3d 82 54 cb bc
       0.08001857 -0.019951545 0.06964224 -0.02482057
0002e0 7d 43 35 3c 99 8f 36 bd fe bf c8 bc 00 7d d4 3c
       0.011063454 -0.04457054 -0.024505612 0.02593851
0002f0 43 f0 6f 3d 31 9e 4d bd 10 cc 95 bd dd 3d d1 bc
       0.05857874 -0.05019969 -0.073143125 -0.025542194
000300 d0 87 45 3a 4d b8 45 3d 7f 02 65 3d 98 f4 15 bc
       0.0007535191 0.048271466 0.055910584 -0.009152554
000310 80 ef 0f bd 33 d7 50 bd 3d ae 94 3c 6c c4 9c bc
       -0.035140514 -0.05098648 0.01814949 -0.01913663
000320 01 8e 14 3d ce 27 56 3a 6a 87 11 bc 11 54 52 3d
       0.036268238 0.00081693835 -0.008882383 0.051349703
000330 cd 30 b0 bb 5a de 1e bc d2 26 76 3d 69 89 c2 bc
       -0.0053769113 -0.009696567 0.060095616 -0.023747163
000340 a4 75 9c bb be 49 b0 3c eb c0 70 3b c7 8d e0 bd
       -0.004774766 0.021519538 0.0036736082 -0.10964542
000350 37 cc ec bc 8f 88 b2 3d 64 2c 8f bd 3e 3c 92 3d
       -0.028905971 0.08717453 -0.06990889 0.071403965
000360 17 52 4f 3c 68 e5 8b bd 8a bc 99 bd aa 14 fb bc
       0.012653849 -0.06830865 -0.07506664 -0.030649502
000370 60 55 34 3d 5a 0c af b9 52 e8 05 be 6c 95 c1 3c
       0.044026732 -0.00033387804 -0.13076904 0.02363082
000380 e7 0b 2c ba bd be b7 3c e7 8a 14 3c f3 6b 25 3d
       -0.0006563053 0.022429818 0.00906632 0.04038615
000390 fc 5d 29 bd f0 a4 21 bc 50 83 ab bb 52 83 de bc
       -0.041349396 -0.009865984 -0.0052341595 -0.027162228
0003a0 71 88 08 bd 55 f4 31 3a a6 2a b5 bc 13 6b 11 bc
       -0.033333246 0.00067884225 -0.022115063 -0.008875626
0003b0 51 fd 24 3c e1 02 67 bd f0 3a 90 bd 7e 13 33 bd
       0.010070161 -0.05639923 -0.070424914 -0.04371976
0003c0 9f 7f 70 3d df 4e b5 bd 9c 8f 2e bd c7 19 24 bd
       0.05871546 -0.08852934 -0.042617425 -0.040063646
0003d0 30 43 2f 3d 9c 0a aa bc 1e 5a 0d bd 02 7c a9 bc
       0.042788684 -0.020757012 -0.03450977 -0.020689014
0003e0 2c b5 40 3d aa 2a a4 3d 90 9b a5 3a 57 c1 0f 3d
       0.04704778 0.0801595 0.0012634862 0.035096493
0003f0 aa e3 b4 bd b1 8a 49 3a ea 72 ba 3b 3d e1 5d bd
       -0.08832486 0.0007688208 0.0056899684 -0.054169882

row_100 f4 [1, 512]
000000 69 fa 4a bd 7b b1 c6 3b 6a 20 81 bc ca 45 9f 3d
       -0.049555216 0.006063638 -0.015762527 0.07776983
000010 56 11 20 3d e4 c0 c5 bb 99 19 83 bd d0 d7 4e bd
       0.039079033 -0.0060349572 -0.06401367 -0.050498784
000020 8c 3b 5f 3c c3 0b 85 bd 57 30 86 3b fe 1d c3 3b
       0.013625037 -0.06496384 0.004095118 0.005954503
000030 60 19 e0 bc 41 bf df bc 6a 72 5f 3b e3 ac 08 3d
       -0.02735585 -0.027312877 0.0034095296 0.033368003
000040 ec 12 cb bd 4d b9 aa bc 47 34 a3 bc 14 bf 68 bd
       -0.099157184 -0.020840311 -0.019922389 -0.05682285
000050 52 34 81 bc 85 36 26 bc 12 11 54 3d 94 5d ad 3c
       -0.015772019 -0.010144834 0.051774092 0.021162786
000060 3b ff 10 bd d4 87 f1 3c a0 49 95 3c bb 38 a9 3c
       -0.035399657 0.029483713 0.018223584 0.020656934
000070 60 42 c6 bc c6 d4 f0 bc ef 3c 53 bd 7d ab 07 3c
       -0.024201572 -0.029398333 -0.051571783 0.008280632
000080 dc 47 4a bd 2f 1b 19 3d 3c 5b 41 bc 72 f1 1e bd
       -0.049384937 0.03737944 -0.011801537 -0.03880448
000090 c5 9e 39 3d 5d 48 e1 bc 89 2c e9 3c 09 23 60 3d
       0.04531743 -0.027500326 0.028463619 0.054720912
0000a0 28 73 55 bd 92 d0 27 3d 1a 75 b0 bd c5 07 d2 bd
       -0.052111775 0.040970393 -0.08616085 -0.10255388
0000b0 51 d3 b9 bd c4 d9 6e bc 84 c6 5d bd 47 e5 fa 3c
       -0.090735085 -0.014578287 -0.054144397 0.030626906
0000c0 01 7f 07 ba d3 d2 3a 3d 97 f5 6b bd 11 1d 77 bc
       -0.00051687664 0.045611214 -0.05760726 -0.015082614
0000d0 04 80 3b bd 68 d2 9b 3d d2 16 2c bc b5 cc ef bc
       -0.045776382 0.07608491 -0.010503488 -0.029272417
0000e0 80 ff 54 bc 59 29 1f 3d ca 32 3f bd 04 61 10 3d
       -0.013000369 0.03885779 -0.046679296 0.03524877
0000f0 3c 2b 80 3d 83 65 c7 3c c7 e2 e5 3c 64 82 22 3d
       0.06258246 0.024340397 0.028062237 0.03967513
000100 17 94 d0 3c 3c 5a 6b 3d f2 59 3e bd 55 68 b8 bc
       0.02546124 0.0574591 -0.046472497 -0.022510687
000110 9e de ce bb 7a 35 c1 3c 3f f2 25 3d 52 f0 73 3d
       -0.006313159 0.02358507 0.040514227 0.05955536
000120 be b2 82 bd e6 67 98 3d 47 05 81 bd 44 5e cb bc
       -0.063817486 0.07441692 -0.06299835 -0.024825223
000130 47 24 fc 3c 8f b5 55 3d ee 51 3a bb 91 ad 06 bd
       0.030779017 0.0521751 -0.0028430182 -0.03288037
000140 70 03 50 39 67 0f b1 3d 83 0b 6b 3d a7 5b 9b 3c
       0.00019837706 0.08645516 0.057384025 0.018964602
000150 84 c9 30 3c a1 56 02 3b 02 9a 90 3a 43 84 71 bb
       0.010790233 0.001988806 0.0011032226 -0.0036852516
000160 0b cf 68 3c 6c 0c 51 bd 8b 5d 18 3d 05 c1 ee bc
       0.014209519 -0.051037237 0.037198585 -0.029144773
000170 df 90 02 bd 56 94 e9 bc 0b 58 62 bd 20 8f bf 3a
       -0.03187644 -0.028513115 -0.055259746 0.0014614798
000180 f9 27 ee bb ef d7 52 3d a9 50 d9 bb 7a 48 63 3c
       -0.0072679487 0.05147546 -0.00663193 0.01387226
000190 3c af af bc 14 ac 87 bc 39 34 d9 3b 69 02 1c 3d
       -0.021445863 -0.016561545 0.00662854 0.038088236
0001a0 d3 d8 a9 bd 52 c3 ca bc 66 41 94 3c 55 a1 16 3c
       -0.08293309 -0.02475134 0.01809759 0.009193738
0001b0 39 02 2c bd e2 31 90 bd 69 ce 93 3d 06 59 de 3c
       -0.041994307 -0.070407644 0.07217104 0.027142059
0001c0 bb af d7 3c 2b ba 1e ba cc d8 ad 3d f4 85 38 3b
       0.026328912 -0.0006054963 0.08488616 0.0028156014
0001d0 68 b3 0e 3d c1 58 89 bd fd c8 07 bd 5c 64 1d 3c
       0.034839064 -0.067063816 -0.03315066 0.009606447
0001e0 62 35 6a bd d8 00 20 3d db d8 12 ba d1 7a b9 bd
       -0.057179816 0.039063305 -0.0005601772 -0.090566285
0001f0 91 e1 55 bd e9 81 1e 3d 27 55 15 bd ca ff 30 bc
       -0.05221707 0.03869811 -0.03645816 -0.010803172
000200 42 8c bd bc 9e 2a 85 3d 92 7c 3c bc 2a 97 34 bd
       -0.02313817 0.06502269 -0.011504309 -0.044089474
000210 da bd c3 bd f5 ed 27 3d 07 68 b1 bc a0 30 06 3d
       -0.09557696 0.040998418 -0.02165605 0.032761216
000220 2c 88 67 3d 66 97 4e 3d 68 9e ab 3c bb 55 10 bc
       0.056526348 0.050437354 0.020949557 -0.008809502
000230 89 3a c8 3c 30 03 81 bd d4 1b b3 3d f1 26 48 3c
       0.024441974 -0.06299436 0.08745542 0.012216316
000240 df 9d 25 bc b7 ea b7 3a f1 99 ff bb 13 69 5a 3d
       -0.01010844 0.0014031742 -0.0078003337 0.053322863
000250 15 44 bb bc 21 f4 a0 bc 24 dc eb 3c 10 33 66 bc
       -0.022859612 -0.01964766 0.028791495 -0.01405026
000260 20 3d 5b 3d f7 93 95 3d 9f 9c 82 3d 39 c2 42 bd
       0.05352509 0.07303613 0.06377529 -0.047548506
000270 49 ed 87 bc 2a 57 44 bd 9a c6 2e 3d c6 97 5e bd
       -0.016592639 -0.04793469 0.04266987 -0.05434396
000280 75 4d 9a 3c 05 6d 67 3d a1 bf 89 bd 3b a7 88 bd
       0.018835763 0.056500454 -0.067260034 -0.06672522
000290 19 da 10 3d 37 8a 1c 3c c3 42 96 3c 09 cf 03 3d
       0.035364244 0.009554437 0.018342381 0.032179866
0002a0 23 bc 2d bd 23 ac 16 bc 5f 61 df ba a2 44 9e bc
       -0.04241575 -0.009196314 -0.0017042569 -0.019319836
0002b0 82 76 a7 3d c3 f9 46 bd 1e 7a 94 bd de a7 19 bb
       0.081769004 -0.048578035 -0.072498545 -0.0023446004
0002c0 7d aa 56 bd 72 4c e7 3a 43 28 29 bd 3f b0 31 3c
       -0.052408684 0.0017646684 -0.041298162 0.010845243
0002d0 03 0e f8 3c 49 dd ee bc 52 3d 52 3d 9d 34 13 3d
       0.030280119 -0.029158251 0.05132801 0.035938848
0002e0 3c 95 0e 3d 7d dd 0d bd bf 0c 64 bc 22 c8 aa 3c
       0.03481029 -0.034635056 -0.0139190545 0.020847384
0002f0 02 3a 59 3d f2 e0 23 3b 5a e2 79 bd 77 72 c1 bd
       0.053033836 0.0025005904 -0.06100688 -0.094456606
000300 6e e7 9e 3d 3f 78 2b 3c 69 1b 5b bc 12 95 6e 3c
       0.077589855 0.010465681 -0.013373234 0.014561908
000310 bc 51 87 bd 6b 5b 25 bc 09 46 75 3c 15 77 09 bc
       -0.066073865 -0.0100925965 0.014970311 -0.008390208
000320 ec b1 9b 3d 3d 15 a5 3d b7 ae 74 bd 45 30 6d 3d
       0.07602295 0.080606915 -0.059736934 0.05790736
000330 50 7e 79 3d 8d dc 03 bc 8c 12 5f bd 97 2f be 3b
       0.060911477 -0.008048189 -0.054461047 0.005804013
000340 26 87 0e 3c c2 09 16 3d dd e7 f1 3c 09 1d b3 bd
       0.008699214 0.0366304 0.029529506 -0.087457724
000350 0a 7c 68 bd 63 27 d7 3d db b1 a9 3c 99 d7 01 3d
       -0.056758918 0.10505559 0.02071469 0.03169975
000360 6c ca d3 3c dc d6 94 3c 2e 66 8e bd 6d 49 8a bd
       0.025853358 0.01816886 -0.06953083 -0.06752286
000370 fb 09 45 3d 4e 15 1b 3d 9c 13 a9 bd 43 cd 91 3d
       0.04810522 0.037862115 -0.08255693 0.07119229
000380 c6 70 a0 3d 66 a7 9d 3c be a6 f2 bc 26 ba 40 bd
       0.0783401 0.01924486 -0.029620524 -0.047052525
000390 ba 5f f3 b9 cf 46 0f 3a e6 14 5f bd 11 79 cc bc
       -0.00046419894 0.00054655684 -0.05446329 -0.024960073
0003a0 55 43 99 bd af 0f 1b bd c4 fa 93 bb 04 dd b7 3c
       -0.07483546 -0.037856754 -0.0045159776 0.022444256
0003b0 a4 43 3f 3d 4c 19 1a bd e8 d4 98 bd 6b 1a 87 bd
       0.046695367 -0.03762178 -0.07462484 -0.06596836
0003c0 12 43 1e bd b9 80 24 bd 31 6c 34 bc c4 4c b8 bc
       -0.038638182 -0.040161822 -0.011012123 -0.022497542
0003d0 00 87 94 3d f9 e1 60 bd 52 e2 23 3c 52 94 41 3d
       0.07252312 -0.054903004 0.010002689 0.04726059
0003e0 90 7b a0 3b ad b0 6c 3d 02 3a 27 bd 98 b1 d8 3b
       0.0048975423 0.05778568 -0.040826805 0.0066129677
0003f0 ee d7 62 bd 48 57 96 3c 0e b8 ea 3c a5 73 6a bd
       -0.055381708 0.018352166 0.028652217 -0.057239193

row_101 f4 [1, 512]
000000 e5 4b 9b bd a3 ae 29 3d d0 10 c8 bc 04 02 ad 3d
       -0.07582835 0.041426312 -0.02442208 0.0844765
000010 75 18 8b 3c 30 48 91 bb 52 1c c2 bd 5c 5d b0 bd
       0.016979435 -0.0044336542 -0.09478058 -0.08611557
000020 fc fb 4c 3c 19 69 89 bd 0d 57 ce bc 42 83 50 3c
       0.01251125 -0.06709499 -0.025187993 0.012726607
000030 5b 73 c4 b9 ac 1d 98 3c 7e fb e9 bb 24 66 57 3c
       -0.0003746998 0.018568836 -0.007140576 0.013146911
000040 0f e2 6f bd 6a 78 0d bd 68 a2 a7 bc 68 50 67 bd
       -0.058565196 -0.034538664 -0.020463184 -0.056473166
000050 ac 07 0c bd 36 78 cc bc 59 2b b5 3d f1 11 8c 3b
       -0.034187004 -0.024959665 0.088461585 0.0042745997
000060 41 26 0a bd bf eb 8c 3c ab 77 4c bc 02 8b 9e 3c
       -0.033727888 0.017202256 -0.012479703 0.019353393
000070 31 1e 53 3b ff 03 55 bd 58 9a d2 bd 27 f8 5a 3d
       0.003221404 -0.052005764 -0.10283345 0.053459313
000080 07 73 6a bd f0 10 44 3d 2b ac a6 3c b2 da 07 bd
       -0.057238605 0.047867715 0.020345768 -0.03316755
000090 e5 f9 32 3c e0 56 93 bc 5a a4 87 3d cd 79 1d 3d
       0.010923837 -0.017985761 0.066231444 0.038446236
0000a0 d7 79 6b bd ec a3 08 bc cb c1 bc bc 3c a7 c8 bd
       -0.057489242 -0.008339863 -0.023041626 -0.097975224
0000b0 34 10 b3 bd 35 5b 0e 3c 86 c6 70 bc dc ef eb 3c
       -0.08743325 0.008688738 -0.014695769 0.028800897
0000c0 67 09 1b bd c2 c3 4b 3c 27 16 75 bd 59 c3 78 bc
       -0.037850764 0.012436809 -0.05983558 -0.015183293
0000d0 55 94 e7 3c 0a 27 35 3d 92 21 9f bc 81 a0 e2 bc
       0.028268972 0.044226684 -0.019425187 -0.027664425
0000e0 f9 01 76 bc 05 d9 14 3d ac 51 94 3c de a2 69 3c
       -0.015015119 0.03633978 0.01810535 0.014260022
0000f0 3d ec 80 3d cc c1 07 3d eb e8 62 3b 32 d5 ef 3c
       0.06295059 0.033143803 0.0034623693 0.029276464
000100 b5 c7 c0 bb 12 bf 3c 3d e4 e0 26 bd 55 66 39 bd
       -0.005883182 0.046080656 -0.040741816 -0.045263607
000110 59 06 51 3d 86 30 3d bd 0f 89 a9 3c 5d 0e b3 3d
       0.051031444 -0.046188854 0.020695237 0.08742974
000120 8b 09 45 bd 87 3c 34 3d 80 57 1c bb a9 95 92 bd
       -0.048104804 0.044003036 -0.0023855865 -0.07157452
000130 b9 3b ad bb 90 6f 7a 3c 0f 39 8b 3b 55 bd 0d bd
       -0.0052866605 0.015285388 0.0042487453 -0.03460439
000140 ef 76 69 3b 1d d8 a7 3d cc 6d a3 3c 5d 3d fe bb
       0.0035623868 0.08195517 0.019949816 -0.00775878
000150 44 79 b7 bc 51 8c 06 bc 2c d6 0a bd 05 50 8d bb
       -0.022396691 -0.008212165 -0.033895656 -0.0043125176
000160 a0 04 08 bd 1e 2c ea bb e1 fe a2 3c 02 98 ec bc
       -0.033207536 -0.0071463725 0.019896926 -0.028881077
000170 ce c7 cc bc 9b 38 70 bc 1d 6e 29 3b 37 07 8c bb
       -0.024997618 -0.014661933 0.0025852986 -0.004273321
000180 a9 b0 9e bc f2 81 33 3d c4 49 92 bb f2 e4 22 bd
       -0.019371348 0.043825097 -0.00446436 -0.03976912
000190 ed 45 47 bd e8 ad 9f bc 3e 45 2c 3d 6c 4c 16 3d
       -0.04865067 -0.019492105 0.042058222 0.036693975
0001a0 f5 89 a1 bd af 1a 75 bd d5 51 18 3d f5 74 19 bc
       -0.07887641 -0.0598399 0.037187416 -0.009366264
0001b0 a5 c7 8b bb b4 f0 36 bd 5d fe 68 3d 23 6f ad 3d
       -0.004265743 -0.044663146 0.056883205 0.08468463
0001c0 22 f5 d1 3c b7 d6 1f bd 45 55 aa 3d 42 9b 1f 3d
       0.025629584 -0.039023127 0.08317045 0.038966425
0001d0 e1 75 3e 3d d0 e1 50 bd 4f 33 44 3b 42 61 b9 bc
       0.046499137 -0.0509966 0.002993781 -0.022629384
0001e0 13 49 89 bd c7 03 4b 3d 04 ec 80 bb 8b 85 bc bc
       -0.06703391 0.04956415 -0.0039343853 -0.023012897
0001f0 17 c0 57 bd 23 3f 23 3d 12 f9 9a bd cf 94 bd 3b
       -0.052673426 0.039855134 -0.07567038 0.0057855616
000200 6d cd 13 bd 3e 32 01 3d 4f f0 21 bd df fa f5 bc
       -0.03608458 0.031542055 -0.039535817 -0.030026851
000210 22 6e e0 bd b7 9a e6 3c f9 fe 92 bd 20 a1 08 bd
       -0.10958506 0.028149946 -0.071775384 -0.033356786
000220 64 af 83 3d 8e 8b c9 3d 9f 86 01 bd ca bf 00 bd
       0.064299375 0.09841071 -0.031622525 -0.031432904
000230 9d d5 a0 bc 3b d9 c1 bd f9 99 97 3d f7 78 6d bd
       -0.019633109 -0.094652615 0.07402415 -0.05797669
000240 8c fd 71 ba 3d 75 62 bb e2 6b e5 bc b5 3d 58 3d
       -0.0009231202 -0.0034554743 -0.028005544 0.052793223
000250 33 a9 f0 bc e1 1d 20 bd 43 58 9e 3c 39 e1 4b 3c
       -0.029377555 -0.039090995 0.019329196 0.012443834
000260 72 6f e4 3c 1b 1c 20 3d 1b e9 16 3b 62 d0 c1 bd
       0.027885173 0.039089303 0.0023027125 -0.09463574
000270 06 69 c6 3a 33 d0 8b bd 77 24 84 3d 46 0a ee 3c
       0.0015137501 -0.0682682 0.064522676 0.029057633
000280 6a 1b ae bc d8 a2 a7 3d 01 d7 59 bd 3f cd 9c bd
       -0.021253306 0.08185357 -0.05318356 -0.07656335
000290 5e 9b 86 bc c6 b9 f6 3c c4 3b a1 3c 50 22 b6 3d
       -0.016431507 0.03011788 0.019681819 0.08893263
0002a0 6d 5f f8 bc 8d 50 58 bd 7f 42 83 3c 50 6a 6d 3c
       -0.03031894 -0.052811194 0.016022919 0.014490679
0002b0 d4 26 e3 3c b1 a3 9e ba be 4e 1e bd ba 8b 00 3c
       0.027728476 -0.0012103227 -0.038649313 0.007845813
0002c0 e7 91 2a bd a9 66 02 bd 50 9e e7 bc c7 89 9d 3c
       -0.04164305 -0.031836186 -0.028273731 0.019230736
0002d0 14 48 25 3d 1e fe c1 bc 87 d2 5e 3d 41 72 89 ba
       0.040351942 -0.023680743 0.054399993 -0.0010486321
0002e0 ec b8 6a 3d 52 0f 1a bd 0c 6f 62 bd 99 ec fc 3c
       0.05730526 -0.037612267 -0.055281684 0.030874537
0002f0 7a 2a b7 3d 81 fc 50 3c a8 29 3e bd c1 58 d7 bd
       0.08943649 0.012755514 -0.046426445 -0.10514975
000300 8c 88 98 3c ea 96 91 3d 63 0c 69 3d ef 06 a5 bc
       0.018619798 0.07108863 0.05689658 -0.020144908
000310 4a 65 02 bd 0d 71 48 bc 22 94 74 3b 02 e5 a6 bb
       -0.031834878 -0.012233985 0.003731974 -0.005093218
000320 eb 81 80 3d 64 e0 08 3d db 87 0d bd 0c c4 2f 3d
       0.0627478 0.03341712 -0.03455339 0.042911574
000330 28 82 10 3c 8c 4c 9b 3a 07 67 c9 bc d0 19 d8 bc
       0.008820094 0.0011848374 -0.02458526 -0.026379496
000340 4d c6 78 3c e8 1a 09 3d 25 92 33 3c a9 fe b9 bd
       0.015183997 0.033472925 0.010960137 -0.09081776
000350 b0 85 8e bd c8 e3 12 3e ae 89 4e 3c 2f 71 d0 3c
       -0.069590926 0.14344704 0.012606068 0.025444595
000360 ab f5 91 3b 98 fa 2f bc 2c a2 99 bc 27 bb 0a bd
       0.0044543347 -0.010740899 -0.018754087 -0.03386989
000370 5c 28 1c 3d b8 eb f4 3b b2 0a ca bd b1 3c 31 3d
       0.038124427 0.007474389 -0.09865321 0.04327077
000380 60 c2 5d 3d 38 e4 35 3d 92 30 49 3a 1f 5e c9 3a
       0.05414045 0.0444071 0.0007674779 0.0015363133
000390 63 8d 8f bc b5 5c 00 bc 54 70 83 bc af 10 c6 bc
       -0.017523473 -0.007834603 -0.016044773 -0.024177877
0003a0 7e e4 b5 bc c8 98 c7 bc ce 9c da bc 23 70 ea b9
       -0.02220368 -0.024364844 -0.026686098 -0.00044715506
0003b0 ab f4 49 3c d3 b5 82 bd 35 72 bd bd 22 e2 54 bc
       0.0123264 -0.063823365 -0.09250299 -0.012993367
0003c0 5a 6e b2 3a c3 48 be bd 2c 05 38 bd 29 eb 89 3a
       0.001361321 -0.09291222 -0.044926807 0.0010522354
0003d0 76 85 f5 3c 63 1d 6a 3c 63 7c 25 bc 5c a6 ef 3c
       0.029970866 0.014289233 -0.010100457 0.029254131
0003e0 cd bb 13 bd fc 2f 46 3d 7d d8 17 bc 64 01 a0 3c
       -0.036067773 0.048385605 -0.009267923 0.019531913
0003f0 4e 05 a9 bd d8 48 0c 3b 0b e9 09 3c dd 02 93 bd
       -0.08252965 0.0021405723 0.008417378 -0.071782805

row_102 f4 [1, 512]
000000 e5 15 88 bd 3f 3c 06 3d c0 cb b6 bc 35 da 0c 3d
       -0.06644801 0.0327723 -0.022313952 0.034387786
000010 ae f9 5b 3d 30 22 7f 3c da de 1c bd ed 71 87 bd
       0.05370491 0.015572116 -0.038298465 -0.066135265
000020 de 20 51 bc 24 f4 9f bd 39 18 01 bd e1 f9 a1 3b
       -0.012764184 -0.07810238 -0.03151724 0.004943118
000030 0d 3c 51 bd c8 4e d0 bb d1 4a 40 3b 0e 7c fa 3c
       -0.05108266 -0.0063570477 0.002934147 0.030576732
000040 ea ca e9 bd 4d 2b 20 bc 33 0e 12 bc 66 dd 40 bd
       -0.11415656 -0.009775949 -0.008914518 -0.047086142
000050 07 6c b5 3a 15 ef 24 bd a1 e0 7e 3d 4d 50 e0 3c
       0.0013841399 -0.04026707 0.06222594 0.02738204
000060 93 ca 1a bd 6d cc 0f 3d ea 39 2c 3a a2 54 0b 3d
       -0.037790846 0.035107065 0.0006569909 0.03401626
000070 00 36 29 bd 7d 13 61 bd 02 6a a4 bd cb 8b 4e 3d
       -0.041311264 -0.054950226 -0.08028032 0.050426286
000080 28 3f 53 bd c2 59 b4 3b e7 84 79 bc fc a5 77 bb
       -0.051573902 0.005503864 -0.01522944 -0.0037788143
000090 f6 a0 1d 3d e3 ab bb bb 33 34 32 3d f4 81 8d 3d
       0.038483582 -0.0057272776 0.043506812 0.06909552
0000a0 49 cb b1 bd 5e 0d 3d 3d 21 14 63 bd 8a b7 e1 bd
       -0.08681352 0.046155326 -0.05543912 -0.110213354
0000b0 28 39 99 bd ba a5 94 bc e0 65 8b bd 56 bd 44 3b
       -0.07481605 -0.01814543 -0.068065405 0.003002008
0000c0 e9 79 09 bd d2 a5 89 3c fe 4a 60 bd 33 12 89 bc
       -0.03356353 0.016802702 -0.054759018 -0.01673231
0000d0 2e 48 3f 3b fe 72 49 3d 91 f4 c2 39 c6 fc 6f bd
       0.002918731 0.04918193 0.0003718478 -0.058590673
0000e0 8a c4 52 bd d3 f0 1d 3d 32 c3 98 bc cd 1c 57 3d
       -0.051456966 0.038559746 -0.018647764 0.0525177
0000f0 87 1d 9c 3d 34 b5 44 3d a0 3a 78 bb 98 52 68 3c
       0.076228194 0.04802437 -0.003787674 0.014179848
000100 1b e0 eb bc 6d ae 52 3d e0 a1 03 bd fb 78 98 bc
       -0.028793385 0.051435877 -0.032136798 -0.018612375
000110 ef 67 8e 3c 97 ed bf 3c 87 f4 e1 3c 28 37 59 3d
       0.017383544 0.023428721 0.02758242 0.053031117
000120 1b 11 7b bd 16 b2 ee 3c f3 f1 d5 bc 69 95 1a bd
       -0.06129561 0.029137652 -0.026116347 -0.037740145
000130 58 6b a5 3c c3 66 0b 3d 8b 0f 4f 3c 97 55 85 bc
       0.020192787 0.034033548 0.012637983 -0.016276164
000140 70 33 a0 3c f0 d4 9c 3d 2a a0 83 3d a2 78 d4 3c
       0.019555777 0.07657802 0.06427033 0.025936428
000150 4c 64 af bb 3f 49 fa bb 22 10 03 bc fa 22 ba 3b
       -0.0053525325 -0.007638126 -0.007999452 0.005680439
000160 c7 dd 2d bc 6d c0 0c bb cb 88 34 3d ee 57 ba bc
       -0.010611958 -0.0021477 0.04407577 -0.022747006
000170 0d a3 55 bd f0 ed 95 bb 04 ff 11 bc 23 a7 88 3c
       -0.05215745 -0.0045754835 -0.008910898 0.01668126
000180 28 2c 39 3c 68 63 70 3d 92 c0 d5 bc d4 4a f5 bb
       0.011302032 0.05868855 -0.026092801 -0.007485727
000190 40 fa 3e bc 00 47 41 bc 4f 57 65 3d ca 5e 39 3d
       -0.011656344 -0.011796713 0.055991467 0.045256414
0001a0 82 c1 e9 bd a2 a2 4e bd e7 8e 73 3c 8e d1 85 3c
       -0.11413862 -0.050448067 0.014865614 0.016335275
0001b0 23 4f b1 bb 81 09 fa bc ae cc 71 3d c3 ad 5e 3d
       -0.005411045 -0.03052211 0.05903309 0.05436493
0001c0 91 db 6f 3c b9 98 ee b9 84 4e e0 3d 1e 1b 95 3b
       0.014639751 -0.00045508685 0.10952476 0.0045503518
0001d0 8c 3e 83 3d f6 9a a5 bd aa 68 0d bd 1a 90 b8 3c
       0.06408414 -0.08086197 -0.034523644 0.02252965
0001e0 17 cb 8d bd dd 02 93 3c bf 0f a2 3c dc cc 4b bd
       -0.06923502 0.017945701 0.019782899 -0.049755916
0001f0 c0 0a fe bc 77 b2 6b 3d 7f 26 10 bd 21 7d ea 3c
       -0.031010985 0.057543244 -0.035192963 0.02862412
000200 01 db b2 bc 7b 45 1c 3d 71 c1 3a bd a1 90 27 bd
       -0.021832945 0.0381522 -0.045594636 -0.040909413
000210 74 85 cc bd 7b 83 23 3d bc 17 11 bc db 08 9b bc
       -0.09986392 0.03992031 -0.008855756 -0.018925121
000220 9e 8a 11 3d f8 aa 9b 3d 3e 96 06 3b 6e 41 02 3c
       0.035532586 0.07600969 0.0020536329 0.00795017
000230 68 f0 47 3c 84 76 a1 bd 88 ee 82 3d 34 be d8 bc
       0.012203313 -0.07883933 0.063931525 -0.026457883
000240 18 37 e8 bb a7 e3 2a 3c e2 40 46 3c 66 e3 52 3d
       -0.007086646 0.010430253 0.01210043 0.051486395
000250 d8 6b a2 bc 13 56 a6 3c 1c 4a b1 3c 50 ac 96 3c
       -0.019826815 0.020304715 0.021641783 0.018392712
000260 2f b8 4b 3d a0 43 9d 3d cb 3f 9b 3c 6f b1 91 bd
       0.049736198 0.07678914 0.018951317 -0.07113921
000270 29 07 99 bc f3 83 95 bd f1 0e 72 3c 87 d5 40 bc
       -0.018680172 -0.07300558 0.01477407 -0.011769659
000280 00 25 21 3b 43 5f 55 3d 52 8c 78 bd a9 59 a8 bd
       0.0024588704 0.0520928 -0.060680695 -0.08220226
000290 b4 f6 39 3c 56 ab da 3b 90 1c ba 3c 72 66 2e 3d
       0.0113503225 0.006673257 0.022718698 0.04257817
0002a0 0f 01 f5 bc ae 98 9a 3a fa b4 d8 3b 5d 1a 92 bc
       -0.029907731 0.001179477 0.006613371 -0.017834837
0002b0 33 3b fd 3c 81 5e 21 bd 6b f6 a4 bd fd 6c 80 bc
       0.030912017 -0.039396767 -0.08054813 -0.01567697
0002c0 07 73 6a bc 62 70 d3 bc ba bc 94 3c 0d 18 00 bb
       -0.014309651 -0.025810424 0.018156398 -0.0019545585
0002d0 ee 90 10 3d 69 07 ee bb 58 6a 4d 3d fb fc 97 3c
       0.035294466 -0.007264067 0.050150245 0.018553248
0002e0 ae 9b cd 3c 5e 3d 99 bd 3c 7c de bc 9b 0b 51 3d
       0.025098648 -0.07482408 -0.027158849 0.05103646
0002f0 19 ea b0 3c 53 93 98 3c 4d 63 b9 bd 37 74 c6 bd
       0.021596001 0.018624937 -0.09052143 -0.09690135
000300 d8 fd dc 3c b9 17 f8 3c 16 1d 1c bc 7f e3 69 bc
       0.02697651 0.03028475 -0.009528419 -0.014275431
000310 b1 d0 8e bd 01 41 cf bc 88 e3 0b 3d e0 3a e7 3c
       -0.069733985 -0.025299551 0.034152538 0.028226316
000320 1d cf a0 3d ab 0f 82 3c 30 d5 64 bd cf 47 45 3d
       0.07852004 0.015876612 -0.055867374 0.048164185
000330 32 44 39 3d d7 5a 4e bc ec 16 1a bd 0d 9d cb bc
       0.04523105 -0.0125949 -0.037619516 -0.024855161
000340 24 80 89 bb 88 3b 18 3b 9c d5 56 3b cb e3 db bd
       -0.0041961838 0.0023228843 0.003278113 -0.107368074
000350 78 75 25 bd 1c 29 89 3d b9 a2 bc 3c 4c 62 08 3d
       -0.04039523 0.06697294 0.023026811 0.03329687
000360 ad 9f c9 3c 9d b4 88 bb 86 1f 6c bd ec 27 6d bd
       0.024612272 -0.0041719214 -0.05764725 -0.0578994
000370 5c 87 a3 3d f0 e6 4b 3d ed b9 9c bd 1e f4 41 3d
       0.07984802 0.049780786 -0.0765265 0.04735195
000380 bb 85 a1 3d 7e 63 2b 3d 67 6e 07 bc 3e 32 bb bc
       0.07886835 0.04184293 -0.008266068 -0.022851106
000390 77 a5 e6 bc 4c 13 dd 3c 35 50 80 3a b8 f8 02 bd
       -0.028155072 0.02698674 0.0009789529 -0.031975478
0003a0 21 0f 00 bd 70 29 39 bd 26 98 27 bd 58 d3 07 3d
       -0.031264428 -0.045205534 -0.040916584 0.033160537
0003b0 0d 48 03 3d 53 78 0c bd 8d 86 96 bd 33 9a 75 bd
       0.032051135 -0.034294438 -0.07349882 -0.05996151
0003c0 91 76 50 bc 5b d0 96 bd 52 cd a8 39 4c ee 8c bc
       -0.012723581 -0.073639594 0.00032196433 -0.017203473
0003d0 64 0d 2f 3d 37 f1 cf bc 01 c3 d0 bb ef 89 f0 3c
       0.04273738 -0.025383575 -0.0063709025 0.029362647
0003e0 bc 4c 19 bd ee 93 c4 3c 61 13 37 bd fb 94 e7 bc
       -0.037426695 0.02399632 -0.044696216 -0.028269282
0003f0 f9 3b 46 bd 53 c1 d6 b9 93 e5 57 3d 62 1e 29 bd
       -0.048397038 -0.00040961299 0.052709173 -0.04128874

row_103 f4 [1, 512]
000000 21 28 cb bd e2 0c dc bb 9f f1 80 bc b6 24 37 3d
       -0.09919763 -0.006715403 -0.015740214 0.044712745
000010 bf 2f 2c 3c 83 1e 52 3c c0 d0 1b bd d6 60 9d bd
       0.01050943 0.012824657 -0.038040876 -0.076844856
000020 f3 e3 e2 bc 73 88 0a bd 9f f9 5c bc 39 82 89 3c
       -0.027696585 -0.033821534 -0.013487249 0.016785728
000030 fe ea 07 bd 78 7a f6 bc 88 78 fe bc ba 72 5b 3c
       -0.03318309 -0.030087695 -0.031063333 0.013394052
000040 e7 f0 8a bd 44 c2 36 bd ee 1e 0f bd 41 2f b4 bc
       -0.0678423 -0.04461886 -0.034941606 -0.021995189
000050 c5 bf 0f bd 1e 9b 46 bc 75 9e 79 3c 13 7e b2 bc
       -0.035094995 -0.012121944 0.015235533 -0.021788632
000060 a1 98 4a bc a3 c4 cf 3b 13 65 52 3c 82 9c f3 bc
       -0.012365491 0.0063405796 0.012841481 -0.029737715
000070 ac c7 0a bd 74 6c 5b bd 98 b6 0b bd 6f 12 2d 3d
       -0.03388183 -0.053570226 -0.03410968 0.042253908
000080 68 a9 a6 bb 35 2c 2b 3d 41 ea 99 3c bf cb 1c 3d
       -0.005086113 0.041790206 0.018788459 0.038280245
000090 57 8c 7b 3d 42 6c 04 bd 59 8f 5c 3d d2 0a 22 3c
       0.061413135 -0.032329805 0.053847644 0.009890275
0000a0 0c 35 2d bd 9d f7 22 3c 9a 38 8a bc 86 af 82 bd
       -0.042286918 0.009946731 -0.016872693 -0.06381135
0000b0 37 cd 83 bd 73 37 f3 bc b7 c1 61 ba dc e9 e1 3c
       -0.06435626 -0.029689526 -0.00086119346 0.027577333
0000c0 f0 aa 05 bd 3e 08 88 bd 0d 12 42 bd fc b0 6d bc
       -0.03263372 -0.06642197 -0.047380496 -0.014507528
0000d0 5a 25 02 3c be ed f5 3d d0 32 b6 3c e1 c9 ac 39
       0.007943476 0.12008236 0.022241026 0.00032956808
0000e0 c9 c0 33 3d 84 52 00 3d 9c be ec bc 25 33 2a bc
       0.043885026 0.031328693 -0.028899483 -0.01038817
0000f0 00 cb bf 3d a0 ea a4 3c bc 30 a2 3d 44 c1 8d 3d
       0.09364891 0.02013141 0.079194516 0.06921628
000100 f3 16 c4 bc 91 9b 5f 3c d4 fe 15 bd df fb 40 bd
       -0.023936724 0.01364793 -0.036619976 -0.047115203
000110 4c 88 38 bd 1c 6f 07 3d 21 a5 36 3d 04 05 29 3d
       -0.045051858 0.033064947 0.044591073 0.04126455
000120 ed 38 c9 bc ae 25 9b 3d 48 e3 cc bc b2 b7 6c bd
       -0.024563277 0.07575546 -0.02501072 -0.057792373
000130 15 9e ba 3d 85 ea 58 3d 12 22 b0 bc f0 13 63 bd
       0.09112183 0.05295803 -0.021500621 -0.055438936
000140 20 63 0d bd 4e 02 4f 3d 5e 7b 9c 3d 7c cb 4b 3b
       -0.03451836 0.050539307 0.07640718 0.0031096628
000150 77 4d f0 3c 55 35 bb bc 98 18 c7 bc 26 00 04 3d
       0.029333813 -0.02285258 -0.02430372 0.032226704
000160 8c e6 85 bd 3c d8 d5 bb 2c 10 7a 3d 0a de a5 bc
       -0.06538114 -0.0065260213 0.06105058 -0.020247478
000170 4b 1c 81 bd 19 c3 57 3d 50 0e 23 3c 13 17 a1 3c
       -0.063042246 0.052676294 0.009952143 0.019664323
000180 0b 81 36 3d 27 44 da bb 18 ef 74 bd 39 2f 34 3c
       0.04455666 -0.0066609564 -0.05979833 0.010997587
000190 f1 bf 78 bd 8e c5 f1 3c 42 33 2a 3d b3 bf f5 bb
       -0.060729925 0.029513147 0.04155279 -0.007499659
0001a0 a2 e6 9c bd 7a b0 30 bd 7e 4e 20 3c a2 da 50 bd
       -0.07661177 -0.04313705 0.009784339 -0.050989754
0001b0 77 75 3e 3d 80 cd 66 bd 70 03 dd 3d 38 30 64 3d
       0.046498742 -0.056348324 0.10791671 0.055710047
0001c0 03 81 20 bb a3 fe 1c bd 52 50 cd 3c 35 af 8f 3d
       -0.002449096 -0.038328778 0.025062714 0.0701584
0001d0 d1 eb 1c 3d d4 40 8a bc 86 40 c8 bc 6c 04 c9 3c
       0.03831083 -0.016876616 -0.02444483 0.024538241
0001e0 3f bc 69 bd b5 d8 83 3d 8a d1 01 bd c6 b5 21 bd
       -0.05706429 0.06437818 -0.031693973 -0.039479993
0001f0 99 94 30 bd 7f 31 1e ba f6 35 3d 3b 9f 00 10 3d
       -0.043110464 -0.0006034597 0.0028871275 0.035156842
000200 0a ad 8f bc 8e ab 2e 3d 8f 7e cd bc a3 fe 0a bd
       -0.017538566 0.042644076 -0.025084762 -0.033934247
000210 be 4e 0a be 8b 45 bf 3c 75 d4 0d 3c ef ca 2b 3c
       -0.135066 0.02334859 0.008656611 0.010485395
000220 fe ca 3a bc ed ac a2 3d 77 44 b9 3b 7d 8e 38 bd
       -0.011400936 0.07943139 0.0056539136 -0.045057762
000230 b9 32 b6 bc 48 2e 8f bd e4 99 7e 3d a6 31 b4 3c
       -0.022240983 -0.06991249 0.06215848 0.02199633
000240 fa e6 2e bd eb f6 5b 3d d2 a3 d3 bc 26 a3 ee 3c
       -0.042700745 0.053702276 -0.025834952 0.02913053
000250 3b ff 39 bd 33 82 2f bc 65 1b b2 3d ef c1 97 3d
       -0.045409422 -0.010712194 0.08696631 0.07410037
000260 c3 41 be 3c 84 d0 95 3b 63 54 36 3d 82 f7 dc bd
       0.023224717 0.004571976 0.04451407 -0.10789396
000270 2b c4 c9 bc 54 74 8a bd 4d 45 be 3c f4 8b 8a bc
       -0.024629673 -0.06760469 0.023226405 -0.016912438
000280 56 37 a1 bb a5 94 3b 3d 65 16 94 bc 7b be d3 bd
       -0.0049199266 0.045796055 -0.018077085 -0.10339066
000290 42 34 22 bc d1 55 4f bc c4 f4 22 bd 14 db da 3c
       -0.009900155 -0.012654738 -0.039784208 0.026715793
0002a0 35 84 0b bd 52 9b 58 bd 62 22 4c 3c 76 b5 23 bd
       -0.03406163 -0.0528825 0.012459369 -0.039967977
0002b0 be 98 18 3d c0 16 8e bd 06 c4 a5 bd 91 13 3a 3d
       0.03725504 -0.06937933 -0.08094029 0.045428816
0002c0 0f 8f 70 bd b4 dc 39 3d 2f d7 15 bd 8d a5 22 3d
       -0.05873018 0.045376495 -0.03658217 0.039708663
0002d0 db dd e2 bc 83 69 32 ba 85 63 20 3d 1b f1 5c 3b
       -0.02769368 -0.00068058836 0.03915741 0.0033713046
0002e0 63 f3 b0 bc 03 9f 82 bd 59 28 4e bd e9 9b 45 3c
       -0.02160043 -0.06377985 -0.050331447 0.012061098
0002f0 11 a7 a8 3c 5a b4 69 3c 77 52 e6 bc 66 62 c9 bd
       0.020587476 0.014264191 -0.028115494 -0.09833221
000300 02 50 17 3d 54 5a c7 3c 9f f3 5e 3d 3d 60 07 bd
       0.036941536 0.024335064 0.054431554 -0.033050764
000310 3f a9 1d bd 69 3b d9 bc 14 6d eb 3c 0a 5d 84 3d
       -0.038491484 -0.026517587 0.028738536 0.06463058
000320 d5 d5 96 3c 1e 0a 94 bc e5 d0 09 bd 1c a9 48 3d
       0.01841251 -0.01807123 -0.033646483 0.0489894
000330 4d c0 53 bc 23 12 43 bd e9 2e 65 3c d4 47 c6 bc
       -0.012924266 -0.04762472 0.013988235 -0.024204172
000340 09 fc 83 3c ea 2e d8 bc 66 7f 01 3d 10 66 cb bd
       0.01611139 -0.026389558 0.031615637 -0.09931576
000350 21 fc 10 3b af ac 98 3d a8 64 67 bd 86 06 8d 3d
       0.0022122937 0.07454812 -0.056492478 0.0688601
000360 e7 4f 0b 3d be da 3c bd af fd 20 bd 87 15 99 bd
       0.034011748 -0.046107046 -0.03930443 -0.07474809
000370 b6 53 20 3d be 7a b7 3d 36 ed 02 be 56 09 6e 3d
       0.039142333 0.08958958 -0.12785801 0.058114372
000380 3b 18 7f 3d 94 11 92 bc aa 15 52 bd 71 a0 78 3c
       0.062278967 -0.017830648 -0.05129019 0.015174971
000390 a3 74 1f bd df ed e0 3c 5a 38 28 bd 2f 21 c4 bc
       -0.038929593 0.027457176 -0.041069366 -0.023941604
0003a0 4a 2f c2 bd d9 8c b1 3c c3 af f1 3c 66 7e 2b 3c
       -0.09481676 0.021673607 0.029502755 0.010467147
0003b0 2f a5 9b 3c 84 6d fd bc b7 1e 62 bd 1e dd 37 bd
       0.018999664 -0.03093601 -0.055205073 -0.04488861
0003c0 c8 ac 1f bc a4 2a 90 bd d5 cb 04 bd 33 7c 9e 3b
       -0.009745784 -0.07039383 -0.032420952 0.004836583
0003d0 cb eb 8c 3c c7 fe 76 3c db 94 70 3c d9 82 d0 ba
       0.017202279 0.015075392 0.014683927 -0.0015908136
0003e0 4c f1 8a 3d 82 d2 77 3d 55 5a 76 bc 6d e4 d3 bc
       0.06784305 0.06050349 -0.015036185 -0.025865758
0003f0 c0 06 5a bd d9 21 48 bd e5 7e 4a 3d 49 57 f1 bb
       -0.053229094 -0.048860405 0.049437422 -0.0073651415
